20250309/model_complete.pt (torch, 944654 bytes, 6 tensors)

weight f4 [256, 784]
00000000: eac7 93bc a12a 0b3c c53f 183c d655 84bc
00000010: 4b58 c5bb 804d 083c 3a43 92bc ea2c 053d
00000020: 6864 293b 7c6d c93b 7e26 4c3c 7f02 b7bc
00000030: d322 313c 1984 4dbd 0c60 723c 4734 333d
00000040: ab9c 503d 38cc f63b 8d10 e23c f6cb 47ba
00000050: 8a7e 00bb 8e25 f93c ae54 ca3c 47e8 e3bc
00000060: babf 033d 6fbd 823c 12f4 fbbc d502 d83c
00000070: ff92 9bbb 27f1 07bd 9891 b0bc ac35 a43c
00000080: 171e 0c3d cf5c 07bc 7b43 3d3c aab4 133d
00000090: c162 09bd f1a2 213d 6b35 8bbc 41ca 42bd
000000a0: 625b 9e3c 8eee e8bc 2ac7 333d e570 a93c
000000b0: ec48 4abd 0089 70bc 890f b93c b9e1 3bbb
000000c0: cce3 e5bb a3f4 203d 130c d7bc f80f 28bd
000000d0: f25a b5ba b32c 433a 89c2 a5bb 49b6 da3c
000000e0: e4eb a43c 28bb 413b 31fe 2abd ec4a ba3b
000000f0: 86b0 e43c 4d7d 143d 26a2 cbbc 54d1 4abd
00000100: d12d 59bd d1a9 7f3c 2ce4 bebd ba15 7dbd
00000110: 9355 fdbb ec66 d8bc 621a 27bc 4dfe 493d
00000120: 8549 39bc 6476 8f3c face de3a f6b8 13bc
00000130: 7b9d 02bc 7512 3cbd 21d7 12bd 66ca f5bc
00000140: 818b 8ebc f658 2bbd 6248 c9bc d1e6 cbbb
00000150: 7253 48bb 29e5 f3bc eadc 04bc 598c 40bd
00000160: 35c8 17bd 4a76 a8bc 92b5 8dbc eefc c03c
00000170: 61aa 373d 563c 2d3c 54b9 1cbc b487 f6bc
00000180: afe8 9f3c 41ff 08bc dfd2 0ebb 9bec b7b9
00000190: b80f 92bc 4051 cdbc dd2a df3b 5a17 063d
000001a0: dd56 67bc 8348 bdba 3d94 673c 3434 443b
000001b0: cf5c a23c fc44 32bd 980e a63c 5bb1 15bc
000001c0: 21ea 3e3c 183f 163c 5474 37bd 2292 44bd
000001d0: 046e bcbc 702f 0dbd 64df c7bc 5856 dc3c
000001e0: 31e9 273d 139d 9f3d 469e eb3c 428a 50bd
000001f0: 9a10 b4ba 0910 39bc fe01 243d dab9 113a
00000200: 4724 a83c f739 bcbc 9363 103c 9490 83bc
00000210: ea8c 1abd 3649 f2bb 22a9 a93c 68ba d93c
00000220: 143a 40bd 0607 47bc 20e2 afb9 a5df bbbb
00000230: b397 58bc bde8 6a3c 00a8 413c caed 90bc
00000240: c395 a0bc 3ac8 79bd e02c a7bc bd76 e3bb
00000250: 4aaa c6bc 8784 3e3d 2eff 593c d7a6 d5b9
00000260: a8c8 9cbd 4027 183d 6e9e 703d 4f35 5a3d
00000270: ca90 a93c cc41 6a3d 29a5 823c e004 40bd
00000280: b49d 6dbd 0f42 c3bc 2ca0 dd3c 9162 da3c
00000290: 0981 23bd 69a8 43bd 6d23 45bc 22b3 eabc
000002a0: 9848 efbc fb5c 833c d78e eebc 7f1a 73bc
000002b0: 6436 8cbd e625 82bc ef8d 76bd a0e6 06bc
000002c0: 09d9 803d 6b80 503c b803 d8bb b031 87bd
000002d0: 7dc2 80bd 3d76 07bd 9b0b 033d 6efe 413d
000002e0: e22c a53d 4f7c d23c 1c2b 1a3d a601 b6bc
000002f0: 1fad dc3b 9f92 27bc 1757 0dbd f507 27bd
00000300: 9088 b23b c251 1dbd 97be e6bc cf5b 3cbc
00000310: 23c3 823c 2abd 7f3c b0cc 7dbc e11b 3abd
00000320: 11b7 92bc 6816 7abd 098e d2bd 4504 f7bc
00000330: 655f d2bc 838b 04bc a98a 96bc 25d3 19bd
00000340: 5857 49bc 332d 07bd 1219 eb3c 5e49 ec3d
00000350: 0834 9c3c 537c 823d 1b13 363d 20dc 483c
00000360: 4f09 933c 8a0c f5bc 7cc0 09bd 154e 203b
00000370: fab6 7ebd b668 e3bc a8cc dabc ede0 55bc
00000380: 20c3 fcbc e800 0abc 549f 04bd a396 e93b
00000390: 0201 3cbd aa8c adbd b0af 57bd 496e 06be
000003a0: 1aa1 ffbc 1a7e edbc eb62 38bd 1590 8dbc
000003b0: b164 43bc 8ef4 a0bc bf1f 1e3c 0c2c 693d
000003c0: 8a5f 803d 30bb 233d 5375 973d af5f 003d
000003d0: 8784 92ba d3d9 eebc c44f 03bd ef84 07bd
000003e0: 0c8b 15bd 5017 9fbc 11fc c6bc d482 1bbd
000003f0: 35a7 41bc 4846 9fbc 874a 0fbd ddbf 2bbc
-0.018039662 0.00849405 0.009292548 -0.016154211 -0.006022488 0.008319259 -0.017854322 0.032513537
0.00258472 0.0061470848 0.012460349 -0.022340057 0.010811525 -0.050174806 0.014793407 0.043751027
0.05093066 0.007531669 0.027595783 -0.000762164 -0.0019606673 0.030413415 0.024698582 -0.02782072
0.032165267 0.01595947 -0.03075603 0.026368538 -0.004747748 -0.033188965 -0.0215538 0.020045124
0.034208383 -0.008261873 0.011551733 0.036060967 -0.033541445 0.039462034 -0.016993245 -0.047556166
0.019330684 -0.028434064 0.04389111 0.020683715 -0.04938595 -0.014681101 0.022590416 -0.0028668477
-0.007015681 0.039295804 -0.026250875 -0.041030854 -0.0013836308 0.00074453204 -0.005058591 0.026698248
0.020132013 0.0029561017 -0.041746322 0.005685201 0.027916204 0.03625231 -0.024857592 -0.049516037
-0.05302221 0.015604452 -0.09320864 -0.0617883 -0.0077311485 -0.026416264 -0.010199161 0.049314786
-0.011309032 0.017512508 0.001699894 -0.009016266 -0.007972117 -0.04591604 -0.035849694 -0.030003738
-0.017400505 -0.041832887 -0.024570648 -0.006222584 -0.0030567315 -0.029772358 -0.008109311 -0.047008846
-0.037056167 -0.020564217 -0.017298494 0.023558106 0.04484022 0.010573467 -0.00956567 -0.030094005
0.019520132 -0.0083616385 -0.002179317 -0.00035080765 -0.01782976 -0.025063157 0.0068105296 0.032737114
-0.014119831 -0.0014441166 0.014134464 0.0029938342 0.019819645 -0.04352282 0.02027063 -0.009136523
0.0116525 0.009170316 -0.044788674 -0.047990926 -0.023001678 -0.034469068 -0.024398513 0.02689664
0.040993873 0.077936314 0.028761994 -0.050913103 -0.0013737858 -0.011295327 0.040040962 0.0005559005
0.02052511 -0.022976859 0.008812803 -0.016060151 -0.037732042 -0.0073939813 0.020710532 0.026578143
-0.046930388 -0.012147671 -0.00033547077 -0.0057334476 -0.013219762 0.014337716 0.0118198395 -0.017691512
-0.019602662 -0.060981967 -0.02040714 -0.006941645 -0.024251122 0.046513107 0.0133054685 -0.0004075083
-0.0765546 0.037146807 0.05874484 0.053273495 0.020698924 0.057191655 0.015947895 -0.04687965
-0.058011726 -0.02383521 0.027053915 0.026658328 -0.03991798 -0.04776803 -0.012032372 -0.02864987
-0.02920942 0.016035547 -0.029120846 -0.01483786 -0.06846312 -0.015887212 -0.060193952 -0.008233696
0.06291396 0.01272593 -0.00659224 -0.06601274 -0.06287096 -0.033071745 0.03199349 0.047361784
0.08065201 0.02569404 0.03763877 -0.022217583 0.006734505 -0.010227828 -0.034506883 -0.040779073
0.0054484084 -0.03840805 -0.028167052 -0.011496498 0.015962189 0.015609065 -0.015490696 -0.045436744
-0.017909558 -0.061056525 -0.10280997 -0.030153403 -0.025680253 -0.008089903 -0.018376665 -0.03755488
-0.012288891 -0.03300209 0.028698478 0.11537431 0.01906778 0.06371369 0.044451814 0.012259513
0.017948775 -0.029913206 -0.033630833 0.0024460603 -0.06218622 -0.027759891 -0.026708916 -0.013054115
-0.030854762 -0.008423068 -0.03237851 0.007128553 -0.0458994 -0.08474095 -0.052657783 -0.13128008
-0.031204749 -0.028990794 -0.04501621 -0.017280618 -0.011925862 -0.019647863 0.009651124 0.056926772
0.06268223 0.039973438 0.07395425 0.03134125 -0.0011178412 -0.029156601 -0.032058492 -0.03308576
-0.03650956 -0.019420296 -0.024290117 -0.037966564 -0.01181965 -0.019442692 -0.034983184 -0.0104827555

bias f4 [256]
00000000: e0b6 2d3e b657 803d 6c86 673d ba97 2f3e
00000010: ad2e 6b3d 5ebe 79bd c8e1 bd3c c526 283e
00000020: 64db 6b3d 58eb f93c 3e9f f9bc 9ded 003e
00000030: 62ed 4e3d 5e78 b53d 74df f43c 74ae 8cbc
00000040: 1a1b cb3c 5a7d 643e 54c7 513d b4a0 a83d
00000050: 7702 ae3d b02c 95bd 5252 383e c4fe 073e
00000060: aa6e 703c 9678 0b3e 2a1d fe3c 86e7 0f3e
00000070: 5438 86bc 8848 b03b c8b1 b6bc e446 28bd
00000080: fa79 0b3d 25fc ffbd ead2 a8bc 902f a33d
00000090: c00f babd 6b9d 55bd 532a a0bd 6030 f93d
000000a0: 57b3 55bd 7a2a 44bd 0698 82bd a8cf 283d
000000b0: a8fc a03d 0841 85bc eb50 633c daa8 d63d
000000c0: c108 f4bc 69d4 bfbb a843 d23d f642 df3d
000000d0: 2f58 2d3d 31a2 853c b288 a93d bc49 9d3c
000000e0: c65e 823d 2065 89bd e720 8ebd 99c6 db3d
000000f0: 3549 f4bd bb0a 8d3d e89c 64bd 2605 20bd
00000100: 245d ab3d 2c52 8fbd a85d 9cbd ec6f 233e
00000110: 6f23 29bc 5e12 bc3c ebf7 84bc 8fd7 013d
00000120: d265 d93d 193a 4a3c fd5c c83c e922 5ebc
00000130: 11ca 943d d3a5 a839 3321 87bd 1950 473d
00000140: 0336 29bd be5e 8bbd cc2f c33d f600 04bd
00000150: 15f4 6a3d eb82 eebb 31b2 73bc b2b7 3fbd
00000160: 604e 55bb 03e5 5f3d 96a8 e53d 0144 753e
00000170: 5d11 8abc 7fd1 9b3d a98f 51bd d3f7 d1bd
00000180: d728 413d 5329 51bc 56d7 dd3c b16e d8bc
00000190: a3e3 413d 0ef8 e8bd adc5 c6bc 9764 92bd
000001a0: 2878 c73d 9c04 5b3d 35ba 91bd aba4 a43d
000001b0: 1d50 e9bc 2f99 d6bd beb5 1c3b 5f0b be3c
000001c0: 2048 3d3d 8180 6c3c f78d e2bd a04b 0e3e
000001d0: 25f3 03be 219c bd3d c05a 193d cdbc 273e
000001e0: 07f0 08be a850 203e 9451 cbbc 228e 8dbd
000001f0: 26a9 b7bc 17fd 2dbd 9c0b a33d 2d0a ca3d
00000200: 5847 b83d d243 9abd 41bd d03d f33b 273d
00000210: 7131 103d 7d7a 373c 428a c3bc 30c2 8b3d
00000220: 084a b0bd 3953 ce3d be24 74bc 473a d63c
00000230: 99dd 02bd 5496 c83d 32c2 6b3d 1da1 8b3d
00000240: f08b 0c3e b2a3 f43c 288e 5cbd 2b88 d93d
00000250: abb2 c2bc 3f47 b4bd 98c1 933d cdc6 bc3d
00000260: 1a4d debc 6fc4 0ebd f90c 8b3d a963 9dbd
00000270: 6394 9a3c 637a 783e 4dd3 c73d bb1e ffbd
00000280: bf0f c73d fc6b 093e 0d0d 003b f638 b73c
00000290: 4803 c63c 231e e03d d8d4 1d3e 07a6 303c
000002a0: 7e31 1fbd b5cf b33d 539d 4b3c 290b c6bd
000002b0: f6e5 f5bd 0b34 80bd 965a 28bd 227c d83d
000002c0: 9437 553c c9cc 813d 4291 5cbd f3e5 293e
000002d0: e906 533c 9c29 ae3d 8fe1 6d3e 33d6 b33d
000002e0: 0026 953c 6d7c 0e3c 5592 babd d5a7 3c3c
000002f0: 3542 9ebc 7fe8 443c 3f4a c2bd 2d59 0cbd
00000300: 653d 60bc a279 bb3c 67c0 893b 4d52 8b3d
00000310: 157a 723d 2115 d2bc d771 ea3c 2d54 acbd
00000320: 3720 b23c 7c29 8c3d ebb8 a9bd 7d50 213e
00000330: 791c 0bbd 6863 673d 1331 5e3c f0ea 05be
00000340: a277 47bc f94a 68bc a9a8 d7bd 1c00 4a3d
00000350: 9a65 64bd 5b4a 113e b87a e0bd 53aa 0b3e
00000360: d6c0 d2bc 4d7e 81bd 4774 babd 9237 4b3e
00000370: 8741 f6bc eab0 bb3d 6c9e a33d f284 2a3e
00000380: 514e 683c 8d56 7c3d 803f 513c 1ab3 613c
00000390: 16b9 863d 3ed5 093e b5be dbbc a09b d43d
000003a0: b218 053d 36b2 453e 0cc4 e5bc bd69 74bd
000003b0: 0330 b6bc f9fd 063e fb7e 4cbd 251f 393e
000003c0: 5a4e 5bbd 8e16 2b3d 17d6 3f3e 4597 c53c
000003d0: dca1 223d 5dba 713e f949 213c f0ea 31bd
000003e0: b68e 6b3e 932c bc3d 574d 643c 8d14 1cbd
000003f0: f0cc e43d 7c86 a23c 15b0 f0bc d302 493d
0.16964293 0.062667295 0.05652468 0.17147723 0.05741756 -0.060972564 0.02317895 0.1642104
0.057582274 0.030507728 -0.03047144 0.12590642 0.050519355 0.08860849 0.029891707 -0.01717303
0.024793196 0.22313443 0.051215485 0.08233777 0.08496564 -0.07283914 0.18000153 0.13280779
0.014674822 0.13620219 0.031019766 0.14053163 -0.016384281 0.00537974 -0.02230157 -0.04108323
0.034051873 -0.12499265 -0.020608384 0.07968056 -0.09085035 -0.05215208 -0.07820573 0.1216743
-0.052172985 -0.04789207 -0.063766524 0.04121366 0.0786069 -0.01626636 0.013874273 0.10481425
-0.02978933 -0.0058541787 0.10266811 0.10901444 0.042320427 0.01631269 0.08278026 0.019200198
0.06365733 -0.06708741 -0.069398694 0.10731239 -0.11928026 0.06886812 -0.0558137 -0.03906741
0.083673745 -0.06998095 -0.07635051 0.15960664 -0.010323389 0.022957977 -0.016231498 0.031699713
0.10615124 0.012342953 0.024458403 -0.013558128 0.072651036 0.00032167006 -0.06598129 0.04866037
-0.041311275 -0.0680518 0.09530601 -0.03222748 0.05736168 -0.00727879 -0.014874027 -0.046806045
-0.0032547936 0.054661762 0.11213796 0.23951723 -0.016853983 0.076083176 -0.051162396 -0.10252347
0.04715809 -0.0127662 0.02708022 -0.02641997 0.047336232 -0.11375438 -0.024264181 -0.07148092
0.09739715 0.053471193 -0.07115594 0.080392204 -0.028480584 -0.10478436 0.0023912038 0.023198782
0.046211362 0.014434935 -0.11062234 0.13896036 -0.12885721 0.09258295 0.03744006 0.16380616
-0.13372813 0.15655768 -0.024819173 -0.06911875 -0.022419523 -0.042477693 0.07961199 0.09865222
0.08997983 -0.07532467 0.10192347 0.040828656 0.0352034 0.011198637 -0.023869637 0.06824148
-0.0860787 0.10074467 -0.014901338 0.026150836 -0.031949613 0.09794298 0.057558246 0.06817839
0.13725257 0.029863212 -0.05384651 0.10621675 -0.023766836 -0.088026516 0.072146595 0.09217606
-0.027136374 -0.034855302 0.06789584 -0.07685024 0.018869584 0.24265437 0.09757099 -0.12457033
0.097198 0.13420099 0.001953903 0.022366028 0.024171486 0.10943248 0.15413225 0.0107817715
-0.03886556 0.08779851 0.012427646 -0.096700974 -0.12006752 -0.062599264 -0.041102014 0.105705515
0.013013739 0.06337888 -0.053849466 0.16591625 0.0128800655 0.0850403 0.23230575 0.0878109
0.018206596 0.008696658 -0.09109942 0.011514624 -0.01931868 0.012018322 -0.094868176 -0.034264732
-0.013686513 0.022885147 0.0042038443 0.06802807 0.059198458 -0.02564484 0.028618736 -0.08414493
0.021743877 0.0684385 -0.082872234 0.1575336 -0.0339627 0.056491286 0.013561505 -0.13077903
-0.012174519 -0.014178031 -0.10530216 0.04931651 -0.055760957 0.1418852 -0.10960907 0.13639192
-0.025726717 -0.06322918 -0.091042094 0.19845417 -0.030060543 0.09164603 0.07989201 0.16652277
0.014178828 0.06160598 0.012771487 0.013775611 0.06578271 0.13460252 -0.026824335 0.103812456
0.032494254 0.19306263 -0.028047584 -0.059671152 -0.02223969 0.1318282 -0.049925786 0.18078287
-0.05354152 0.041769557 0.18734013 0.024119982 0.039705142 0.23606248 0.009844297 -0.043436944
0.23003659 0.09188189 0.013934455 -0.038105536 0.11171901 0.019839518 -0.029380837 0.04907496

weight f4 [128, 256]
00000000: 55d6 2b3d 9ecb 7e3d 861c 72bd a0f0 0d3c
00000010: aa52 293d 2ecd 44bd 892d 52bd b2c8 0d3d
00000020: e122 773c c823 4ebd 8ddf 05bc 2e66 133d
00000030: 3e16 7e3d e826 793d 4004 5ebd 9202 463d
00000040: fb37 5cbc f5ca c4bc b1e2 833c d52c 4f3d
00000050: ba45 72bd 9384 703d 30d5 193d 562b cb3c
00000060: e9e2 e9bb 9037 2e3d 5c83 52bd 7730 ef3c
00000070: c27e 023d d0a1 c7bc 948a 1fbd 9253 32bc
00000080: 48c9 673d f0ff 10bd d838 313c f8ff 45bd
00000090: 831b 3fbd 330e 95ba 3bd7 0e3d c603 57bd
000000a0: 2b08 4c3c 6028 0fbd 5aa6 8fbc 32dc 4e3b
000000b0: 0090 2f3c 1679 46bd 193b 81bd affc b9bb
000000c0: 408b 403d 62be 05bd b480 adbb 598d 7abd
000000d0: 147d 43bd e4c0 afbc b16b 2bbd 376a 783d
000000e0: 3e38 bfbc 97f7 73bd c7f8 64bd 4a15 02bc
000000f0: c8c8 f5bc 82c9 143d e952 b33c 0423 5f3a
00000100: 4e9f f7bc 44e1 923c 619e 403d 8b4d bebc
00000110: 0778 703d 29a0 a3bc 9b27 6d3d 29f4 053d
00000120: c5c0 51bd ad58 4bbd c8e5 783d 3504 0a3d
00000130: d16f 33bb a8ab 71bc 73eb 5fbd 2c09 fc3c
00000140: fc02 bdba 6290 a8bb 7410 1e3d f78b e9bb
00000150: 1d32 893c a9ad 1d3d 2ee8 4abd 0de8 8fbc
00000160: 9d3b 263d a976 07bd 5707 373d b973 7bbd
00000170: 10ee 3fbd 84d5 d33c aafb 9d3c 5a6d 35bd
00000180: 22e3 22bd 65b2 a73b 518f 59bd 9337 523d
00000190: 5356 20bc f199 53bd c6f8 c63c d2ff 5b3d
000001a0: 226c 80bd 995b 0ebd 700a 7cbd fd48 49bc
000001b0: 3dfb dabc 4b1b 523d 3b00 77bd 88dc 41bd
000001c0: f39f 813c 1ee4 2bbd 5567 d93b 9ad8 00bd
000001d0: 2026 653c f463 f23b a306 01bd 47be d3bc
000001e0: 0b4d 67b9 b351 3f3d 44b3 493b a156 c5bc
000001f0: fd42 233d 442e 2e3d 9c5b 22bd 7b77 e23c
00000200: 8dc2 1fbd 4285 4e3d 3e9c 74bd 2aad 7e3d
00000210: b709 ffbc f9d8 4d3c 68d5 1d3d 4b0c 36bd
00000220: 0f4b 003d 137a fe3c 6db4 edbc efa7 3abd
00000230: 647d 173c 9360 3d3d d0d3 6abd a6e6 783d
00000240: 95e9 103a 95a5 75bd 7065 343d 3dd1 65bd
00000250: ec0a 243d 1371 dd3b 8b8a 6cbc 5265 743d
00000260: d4a1 82bd ecad 1ebd 260b 33bd fbb7 09bc
00000270: f917 6fbc e840 b9bb 5fb4 29bd fb3e d73c
00000280: 7fb4 533c 4cbe 58bc ff66 fbbc 03e5 d33c
00000290: 2051 64bd 2624 37bd 2f6a 373c d7fe 533d
000002a0: 430d 143d 7079 683d 7cf1 91bc 49aa dabc
000002b0: a0c0 5dbc 9845 f1bb 6101 6a3d d5ef 93bb
000002c0: 0157 c0bc 6047 b73c cdfd 6b3d 36dc 1a3d
000002d0: f7f6 5e3b dbd3 5ebc 5802 f23b 6430 e53a
000002e0: 5410 2a3d 8ba2 e6bc 29b4 b33b a5c4 cf3c
000002f0: 7f4b 37bd 6d26 e4bc 3d4c 693d e169 c2bc
00000300: 06d4 adbc 3a48 65bd f7c9 19bd b9fe 1abd
00000310: 0582 1a3d 02e0 47bd 6083 643d 8f0b 6d3d
00000320: 8ce7 7abd cc65 033c 83d4 493d 8e2d c9ba
00000330: d053 c4bb af2d 48bd 8fb7 813c a9bb 41bd
00000340: 37ed 1fbd c028 5d3c 0004 38bd aee5 103d
00000350: ff27 6fbd d8ae 64bd 7f49 15bd 5f02 543d
00000360: cc8c 213d dba2 67bc 9be3 143d 8746 293d
00000370: 5bf1 ef3c 2c69 4e3d c513 d1bc c89f 6b3d
00000380: 78d2 20bc 6657 91bc 6da0 413d 0ffb 2fbc
00000390: dd94 ecbb 0964 48bd 1acc 753d 1ad4 4abd
000003a0: bb25 84bc ce8f 70bd 2c2a 703d a729 40bd
000003b0: aa3b 2cbd d91a a03b 12d7 67bd abe9 053d
000003c0: ecb4 aa3c 6475 54bd 7df0 28bd a263 7f3d
000003d0: 4951 143d a98d a7bc 6d53 2fbd f597 fa3b
000003e0: e139 32bd 92c3 073c ac15 4e3d c1ee 013d
000003f0: 020f 86bc cb45 85bb c389 e1bc bae1 4cbd
0.04195245 0.062205903 -0.059109233 0.0086633265 0.0413386 -0.048047237 -0.051312957 0.034615226
0.015083999 -0.050327092 -0.008170974 0.035986118 0.06203293 0.06082812 -0.054203272 0.048342295
-0.013441081 -0.024022559 0.016099306 0.050579865 -0.059148528 0.058720183 0.037556827 0.024800938
-0.0071376455 0.042533457 -0.051394805 0.029197915 0.031859167 -0.02436915 -0.038950518 -0.0108841825
0.05658844 -0.03540033 0.010816775 -0.048339814 -0.046657097 -0.001137203 0.03487323 -0.052493833
0.012453119 -0.034950614 -0.017535377 0.0031564352 0.010715485 -0.04845532 -0.063101 -0.005675874
0.0470078 -0.032652266 -0.0052948836 -0.061169956 -0.047726706 -0.021454282 -0.04185075 0.06064817
-0.023342248 -0.059562292 -0.055901315 -0.007939646 -0.030002967 0.036324985 0.02189012 0.00085119926
-0.03022733 0.01792968 0.047026042 -0.023230335 0.058708217 -0.019973831 0.0578991 0.032703552
-0.05120923 -0.049645115 0.06076601 0.03369542 -0.002737988 -0.014750399 -0.0546679 0.030766092
-0.0014420445 -0.005144165 0.03858991 -0.007127281 0.016747529 0.038495693 -0.04953783 -0.017566705
0.040584195 -0.033072148 0.044684734 -0.06138966 -0.046857893 0.025858648 0.019285042 -0.04429374
-0.039767392 0.005117702 -0.053115193 0.05132253 -0.009786206 -0.05166048 0.024288546 0.053710766
-0.06270625 -0.034755323 -0.06153339 -0.012285468 -0.026731128 0.05129556 -0.060302954 -0.047329456
0.01582334 -0.041965596 0.0066346326 -0.031456567 0.0139861405 0.0073971692 -0.03150047 -0.025847567
-0.00022058577 0.046708774 0.0030777017 -0.02408916 0.039858807 0.04252459 -0.039638147 0.027644863
-0.039003897 0.050420053 -0.059719317 0.06217686 -0.031132562 0.012563937 0.0385336 -0.044445317
0.03132158 0.031064069 -0.029016698 -0.04557031 0.009246204 0.04623468 -0.057330906 0.06076684
0.00055279705 -0.059972364 0.04404205 -0.05610775 0.04004948 0.0067578643 -0.014437328 0.05966694
-0.063785225 -0.038740084 -0.043711804 -0.008405681 -0.014593118 -0.0056534894 -0.04143178 0.026275149
0.012921452 -0.013228964 -0.03068876 0.025866037 -0.05574143 -0.04471221 0.01119475 0.051756706
0.03614546 0.056756437 -0.017815344 -0.026692526 -0.013534695 -0.0073630325 0.05713022 -0.004514674
-0.023478987 0.022372901 0.05761509 0.037807666 0.0034021714 -0.013600315 0.0073855333 0.0017485735
0.041519478 -0.028153678 0.0054841232 0.025362322 -0.044749733 -0.027850354 0.056957472 -0.023732128
-0.021219265 -0.055977084 -0.037546124 -0.03784058 0.037721653 -0.048797615 0.05578935 0.05787235
-0.061255977 0.008019876 0.049274933 -0.0015348659 -0.0059914365 -0.048871692 0.015834598 -0.047298107
-0.039044585 0.013498485 -0.04492569 0.03537529 -0.058387753 -0.055830806 -0.036447044 0.051760074
0.039440915 -0.014137949 0.036349874 0.041327026 0.029289892 0.05039327 -0.025522122 0.057525426
-0.009815805 -0.01774187 0.047272135 -0.010741009 -0.0072198943 -0.048923526 0.0600091 -0.049518682
-0.016131273 -0.058730893 0.05863397 -0.046914723 -0.042049088 0.004886013 -0.05660159 0.032693546
0.020838223 -0.051869765 -0.041244972 0.062350877 0.036210332 -0.020453291 -0.04280417 0.007647509
-0.04351223 0.008286374 0.050313637 0.031721834 -0.016364578 -0.004067158 -0.02753151 -0.050019957

bias f4 [128]
00000000: b6ab c2bc 5c01 12bd fbb0 3f3c d89c e83d
00000010: dcbe c93d c7a7 c8bc f895 3b3d ed2b 173e
00000020: 080f 4dbc 5866 34bd 1f00 fb3d f23a 283d
00000030: 2cb3 febb 4edc 323e af87 9fbc 3b7e c3bc
00000040: af8f 48bd 6dc2 03bc fe70 ba3d a1a1 3b3e
00000050: 856a 20bd a095 323e d86a 693b 57c7 c2bd
00000060: 06a9 883c e1d8 a9bc 028e fa3c be0a c8bc
00000070: 0e0b 983d 04ff 8fbc 9cb6 3ebd c9a4 d4bd
00000080: d83a eb3c 3f90 d93d 5035 8c3c 43a9 2a3b
00000090: ed0c 1fbd 92e4 0f3c 96a2 8dbd 58e5 f1bc
000000a0: b6b5 5cbc 362c 6c3e 2039 f73c 7b65 793c
000000b0: a6e2 983d db5a 02be 29eb 7dbd d1d0 b63d
000000c0: 3f31 5dbd 3724 7b3d 7160 b93b 55c3 733d
000000d0: 5b68 1e3e af51 3e3d 98ac 803d 0cf3 923d
000000e0: c645 1f3e 3f18 923d 3c0d 233e c29e f53d
000000f0: 8e35 ba3d f2c7 4dbd 07e0 a53d 0975 123e
00000100: 1a00 1c3e fb5f 0b3e 621c 50bc 3cbf 0a3d
00000110: 80be 273e 3673 223e 1676 0d3d fe17 753d
00000120: 1fab 103e 6483 573e b7d5 f4bc b000 debc
00000130: 2afa 0d3e 28d2 8dbc 1cac 7bbd 7401 1ebe
00000140: a35d 1d3d 6651 013e 4eb5 903d ce68 45bc
00000150: e78c cd3d eefb 64bd 4e3e 25bc 5e44 22bb
00000160: b3d7 e5bd 406e 0e3e 8bc7 bdbd ec31 70bd
00000170: f7b0 77bd 3489 d2bc 3817 8fbd 3b7d aa3d
00000180: 7c9b 41bb f7d8 483d d6e6 3b3e cfc7 a9bc
00000190: 57ed bbbd beb9 843d abbf 1bbd 1aca 8fbd
000001a0: 2af7 8a3d 891d ad3d 4723 d23c 61de ea3d
000001b0: 3817 ba3d f47b dd3d d46a 833d 02bc 013e
000001c0: 3912 52bd 21f7 32bd 451e 71bc dfa4 323e
000001d0: bbe1 ea3d 61d9 143e 6e06 adbd 255f 913d
000001e0: 0162 d9bc 9b13 e13d 4686 683a 5e3b 2f3e
000001f0: f4cb aa3d 7936 d63d 1013 2bbd c3ab bbbb
-0.023763519 -0.035645828 0.01169991 0.113580406 0.09850857 -0.024494065 0.04579732 0.1476285
-0.012515791 -0.044042915 0.122558825 0.04107184 -0.007772824 0.17466852 -0.019473879 -0.023863902
-0.048965152 -0.00804196 0.09103583 0.18323375 -0.039164085 0.1743989 0.0035616662 -0.09510677
0.01668216 -0.020733299 0.030585293 -0.024419185 0.074239835 -0.017577656 -0.04656087 -0.10382993
0.028714582 0.10623216 0.017115265 0.002604083 -0.038830686 0.008782523 -0.069157764 -0.029528305
-0.013471058 0.2306374 0.030178607 0.015221949 0.07465105 -0.12729971 -0.061991844 0.08926547
-0.054002043 0.061313834 0.0056572487 0.059512455 0.15469496 0.04646462 0.0628292 0.07175264
0.1555396 0.07133531 0.15923017 0.11993171 0.09092246 -0.05023951 0.080993704 0.14302458
0.15234414 0.13610832 -0.0127020795 0.03387378 0.16381264 0.15864262 0.034536444 0.059837334
0.14127778 0.21046215 -0.029887063 -0.027099937 0.13864961 -0.017312124 -0.061443433 -0.15430242
0.038419377 0.12628707 0.07065831 -0.012048913 0.100366406 -0.05590432 -0.010085655 -0.0024759988
-0.11222782 0.13909245 -0.092665754 -0.05864136 -0.0604715 -0.02570019 -0.069868505 0.08324667
-0.0029542139 0.04903504 0.18349776 -0.020725159 -0.09176128 0.0648074 -0.038024586 -0.0702097
0.06785424 0.08452899 0.025651587 0.11468197 0.0908646 0.10814658 0.0641686 0.12669376
-0.05128691 -0.04369271 -0.0147166895 0.17445706 0.11468836 0.14536048 -0.08448492 0.070982255
-0.02653599 0.109900676 0.0008870106 0.1711249 0.08339682 0.104596086 -0.041766226 -0.0057272627

weight f4 [10, 128]
00000000: 08b2 5c3c 9095 74be dccf cabd 35be 1abe
00000010: 21bf cdbd 5559 c23d 1b5f 4d3e 4e58 ff3d
00000020: 9287 113f ca1a 06bd 4e73 503b a749 e5be
00000030: 44bd a23e a3f8 3cbe 662d febc a415 013c
00000040: 9099 353d 38fb afbe 14ea 82bd e877 cabe
00000050: 1390 48bd ca8e 97be e923 11bd 359d 343f
00000060: 87fa a13e f434 9ebe d58f a0bd 28fd 953c
00000070: 2544 f0be fcaa f83d 5d4b cd3d 7914 8d3e
00000080: 4463 cebd c846 833d d7d2 99bd dc0e 08bf
00000090: fb70 abbd 4b6f 6e3d 21d7 023d c856 383f
000000a0: 85c9 15be 7c9b c4be 5ba8 f53e 600c d6be
000000b0: 3f0b 47be 815f 203f 4c91 d23e 9d4a a0be
000000c0: e2f5 d73e 08a8 423c 2222 353d 55a6 0c3e
000000d0: 582a d0be 7f7f 4bbe a14a 04bf b485 8f3e
000000e0: 79f3 f43e 1604 76be 3fbc f9bd 1693 c5bd
000000f0: 3efc d33e 4910 953e 3015 f53e c5d3 943e
00000100: 4a7b ddbe 9c45 babe f4fd d4bd 5a1f 9bbe
00000110: 67eb a23c 65a3 a3be 2e4e bdbd 0750 b0bd
00000120: 63fa 81be d31a d6be db7a 8f3d 88fa a6be
00000130: 253c 8c3e 374a a13e c87d 16bd 4ec6 ae3e
00000140: 74a0 82bd bdb8 933e 4fbe 0dbf ce27 463d
00000150: 4e9f 813b 66e1 9cbd ffac 2dbd 923d 013f
00000160: e5ee 973e f47e 0fbe c7fc 77be b330 a5bd
00000170: aebf 443d 768b 853e 1a5e 25bd 0350 0d3f
00000180: fb8c 343d a2f1 67be 962b b53d 6ff9 c5be
00000190: d323 6a3d 0657 dabe 9dff 1c3d 8425 02bf
000001a0: c9aa a8be 1f13 83be fc50 b8be 4fae 073d
000001b0: 8356 a73e aec6 03be 84ee 46be 1890 803e
000001c0: 2b00 dd3d 0a62 543d 6ab0 d3bc 7c6d a9bd
000001d0: 0d8c d13e c7ad eebd 6b62 9b3e 329f 2ebd
000001e0: 84d9 4fbe 1793 a83d b59c a53c 2a50 bd3d
000001f0: 37a3 ed3e ab6d 93be 23d7 0ebe de4f 7a3e
00000200: 579f 9abd 5420 6ebe 11f9 803c 58c6 393e
00000210: 25c1 483e a383 33be c168 ca3e 4cc1 25be
00000220: e0ba 5b3e d055 0cbf 8ab8 66be 72aa 57bf
00000230: 3181 233e 9171 0d3f a497 be3d d2d4 9ebd
00000240: f799 133d 355a 96be f2be a3be fed2 e03e
00000250: bbe4 383d d643 e13e 81de ab3d 5023 713e
00000260: 603f adbe 47bb 5c3e 451b 0abe dd71 11bc
00000270: 4225 6f3e ddd9 2e3f 6013 0abe 6322 c53e
00000280: b475 a53e a129 d6be 5a0b d03d 72ef babe
00000290: 7d81 39bd 5034 a43d f2dc 303c ab39 3d3e
000002a0: 00cf 84be 4e6b 873f a405 a0be f72e 04bd
000002b0: 12b9 0e3e 035a 19bf 265a a4be f794 90be
000002c0: 104d a5be ae0a a2be 7909 643d 81e3 c1be
000002d0: 043f 203e 18ff b0bd 2ec4 52bd 37de e4bd
000002e0: d6d5 91be 49e3 d7be dbce 95be eab5 2c3f
000002f0: 143b ea3c c177 3fbe 0b5e ccbb c1e1 c23e
00000300: 58fb d5bd c0ad 303f 7e84 8c3b 9c96 a63e
00000310: b9ae 273e 4cee f1bd ad76 c4be ad6c fcbd
00000320: 0aad 473f 4e45 0a3f 92d6 babc 02e1 78be
00000330: d975 3b3f 911f 8cbd be56 133d c6be 0dbe
00000340: 6804 d8bc ef6a b1bb 3f15 c1be 7c78 c83d
00000350: f2ef 313e 38c5 2d3a 3546 00be 160c 803e
00000360: ed2d 27be a5dc b8be 28e9 103e ef69 7a3d
00000370: 3116 6fbc f7e0 fabd e4fb 02bf e52a 63be
00000380: e277 0e3c e28f b13e e272 7dbe 417d fdbe
00000390: c7a7 b53d 0bf4 1a3d b566 d2be b271 61be
000003a0: 575c 2a3d 7103 b23e b33d 463f ce12 bb3e
000003b0: 7452 903e 9e0e fb3e 070c 98be 4621 27bf
000003c0: 6998 1c3e 68df 893d 3625 9b3d bdbd 3dbc
000003d0: b30d f6be e3b0 123f af51 20bf d526 aebd
000003e0: 1c44 b23e 807d a33e 0d61 acbd 3b6d 233e
000003f0: cbc0 4abf 1e40 dcbe f625 533d 4b44 ba3e
0.01347018 -0.23885179 -0.09902927 -0.1511162 -0.100462206 0.09489695 0.20055811 0.12468015
0.5684749 -0.03274039 0.0031807008 -0.44782755 0.31785023 -0.18454222 -0.031027507 0.007878695
0.0443359 -0.34371352 -0.06392303 -0.39544606 -0.048965525 -0.29601127 -0.035434637 0.7055238
0.3163645 -0.30899775 -0.07839934 0.01830919 -0.4692699 0.12141988 0.1002414 0.27554682
-0.10077527 0.06409985 -0.07510918 -0.53147674 -0.08371159 0.058211606 0.031943444 0.7200742
-0.14627655 -0.38399875 0.47980008 -0.41806316 -0.19437884 0.6264573 0.41126478 -0.31306925
0.4217978 0.011880882 0.044222005 0.13735326 -0.40657306 -0.19872855 -0.51676375 0.28031695
0.47842005 -0.24024996 -0.12194108 -0.09647195 0.41403383 0.29113987 0.47867727 0.29067817
-0.43258125 -0.36381233 -0.104 -0.30297357 0.01988764 -0.31960598 -0.09243427 -0.08609014
-0.25386342 -0.4181734 0.07005855 -0.32613015 0.27389637 0.31501934 -0.036741048 0.3413567
-0.0637826 0.28851882 -0.5536851 0.048377804 0.003955758 -0.07660179 -0.04240131 0.50484574
0.2967445 -0.14013273 -0.2421752 -0.08065929 0.048034362 0.26082963 -0.040372945 0.55200213
0.044079762 -0.2265077 0.08846204 -0.38666865 0.05716307 -0.4264452 0.03832971 -0.50838494
-0.329428 -0.25600526 -0.35999286 0.033125218 0.3268319 -0.12868759 -0.19426924 0.25109935
0.10791048 0.05185131 -0.025840957 -0.082728356 0.40927163 -0.11654239 0.30348524 -0.04263229
-0.2029782 0.0823118 0.020216325 0.09243806 0.46413586 -0.28794608 -0.13949256 0.2444453
-0.07549923 -0.2325452 0.015743764 0.18142068 0.19604929 -0.17530684 0.39533046 -0.16187018
0.21458006 -0.5481844 -0.22531334 -0.84244454 0.15967251 0.55251414 0.09306267 -0.07755436
0.036035504 -0.29365698 -0.31981617 0.43910974 0.04514001 0.43997067 0.083920486 0.23548627
-0.33837414 0.21555816 -0.13486965 -0.008877245 0.23354056 0.68301183 -0.13483953 0.38502797
0.32316363 -0.41828635 0.10158415 -0.36510807 -0.045289505 0.0801779 0.010794865 0.1847903
-0.25939178 1.0579622 -0.31254303 -0.03227135 0.13937786 -0.5990297 -0.32100028 -0.2823865
-0.32285357 -0.31648773 0.055673096 -0.37868884 0.15649039 -0.08642405 -0.051456623 -0.111751966
-0.28483456 -0.42165592 -0.2925938 0.6746508 0.028592624 -0.18698026 -0.0062367967 0.38062862
-0.10448331 0.6901512 0.0042882552 0.3253678 0.16375245 -0.1181303 -0.38371792 -0.12325416
0.7799841 0.54012 -0.022807393 -0.24304584 0.73226696 -0.06841958 0.035971396 -0.13842306
-0.026369289 -0.005414359 -0.37711522 0.097886056 0.17376688 0.0006628814 -0.12526782 0.2500922
-0.16326113 -0.36105838 0.14151442 0.061136182 -0.014592693 -0.1224994 -0.51165605 -0.22184332
0.0086955745 0.34680086 -0.24750856 -0.49509624 0.088698916 0.037830394 -0.41093984 -0.22016028
0.04159197 0.3476825 0.77437896 0.36537784 0.28187907 0.4903459 -0.29696676 -0.65285146
0.15292515 0.067320645 0.07575457 -0.011580882 -0.48057327 0.5730116 -0.6262464 -0.085035
0.34817588 0.31931686 -0.084169485 0.15959637 -0.7920043 -0.43017668 0.051549874 0.36380228

bias f4 [10]
00000000: 330d 24be 6b96 1e3e 2b52 ea3d 4b73 0a3e
00000010: a280 afbe e733 23be 1758 48bd bc66 6fbe
00000020: 5650 d83d 9bdb cd3c
-0.1602066 0.15487067 0.114414535 0.13520543 -0.34277827 -0.15937768 -0.048912134 -0.23379034
0.10562198 0.02512913
